IL/il_model.pth (torch, 269586 bytes, 6 tensors)

net.0.weight f4 [256, 115]
000000 32 4f 15 bd 35 2b 91 be 74 5a c6 3d 52 21 6b be
       -0.03645248 -0.28353277 0.09685221 -0.2296193
000010 0a 1c a0 3e e9 da 4f 3e ae cd 80 3d bb 92 1b 3e
       0.31271392 0.20298351 0.0628923 0.15192692
000020 79 5d 22 bd b6 c2 3b 3e 60 ee 18 be 59 6e ee 3d
       -0.039639924 0.18335995 -0.14934683 0.11642141
000030 e4 3c 56 3e 15 08 69 3d b8 4e ae 3c b2 cf 6f 3d
       0.20921665 0.056892473 0.02127777 0.058547683
000040 34 f0 62 3d ad db 79 bd 42 6c be bd 6e 7b 1f 3d
       0.055404857 -0.061000515 -0.09297992 0.03893607
000050 4a eb 8b 3c bf 9f 1d be 81 fd cd be db 07 f3 bf
       0.017079968 -0.1539297 -0.4023247 -1.8986772
000060 e9 79 c7 3d 83 cd 25 be 2b e4 8b be ee ad 91 be
       0.097400494 -0.16191678 -0.27322516 -0.2845301
000070 20 61 41 3e f7 f5 0f bf f4 70 19 3f 58 7a b8 3d
       0.18884706 -0.5623469 0.5993798 0.0900771
000080 3b 59 2c be 94 57 b9 3c e2 f2 16 3f 4f 79 87 3e
       -0.16830914 0.022624768 0.5896436 0.2645974
000090 f3 3f 0f 3e fd a0 f2 be 69 74 21 3e 7c ad e2 3e
       0.13989238 -0.4738845 0.15767063 0.44272983
0000a0 95 00 25 3f 4d c5 86 bd 96 0d c8 3e e7 66 a5 3e
       0.64454013 -0.06580601 0.39072865 0.3230507
0000b0 0c 46 c1 3d a5 a0 2d 3e b3 11 4e bd aa 6f 40 3d
       0.094371885 0.16955812 -0.050309848 0.04698149
0000c0 94 86 1e be 9e 98 64 3e 77 2b 34 bc f4 82 32 3e
       -0.15481025 0.22323844 -0.010996691 0.17432767
0000d0 bb 50 ff bd 9e 38 34 3c 56 34 9c 3d 48 32 24 3e
       -0.1246657 0.010999827 0.0762717 0.16034806
0000e0 86 63 61 bd 98 c3 36 3e 79 1c f3 3c 05 8f 30 3e
       -0.055026554 0.1784805 0.029676663 0.17242058
0000f0 91 24 31 bd 05 cc e6 3d 6a 91 7d 3e 53 1f 65 be
       -0.043247763 0.112693824 0.24762502 -0.2237523
000100 fb 3a 09 bd f6 a7 0b bd 17 2c 3d 3e 49 73 1c 3f
       -0.033503514 -0.034095727 0.1847385 0.6111341
000110 d8 65 07 3f 95 76 54 3e 59 8d 84 3d df 28 e0 3d
       0.52889776 0.2074836 0.064722724 0.109452955
000120 2d 42 96 3e 76 3a 20 bf d9 74 95 3f d9 4d fd bc
       0.29347363 -0.62589204 1.1676284 -0.03092091
000130 e5 42 a7 3e fd 00 c0 3c e4 af 99 3f 49 22 84 bf
       0.32668224 0.023437971 1.2006803 -1.0322963
000140 14 f6 2f 3d f9 b4 3c 3f f9 61 a9 3f 95 30 6e 3f
       0.042959288 0.7371364 1.3233024 0.9304288
000150 5c 23 98 3f 77 bf 20 be d5 e7 4c bf ac bd a0 be
       1.1885791 -0.15698038 -0.8004125 -0.31394708
000160 db 0b 90 3e 35 1a 30 3d 5c a8 d5 3d 20 1a ca 3f
       0.28134045 0.042993743 0.104325026 1.5789223
000170 82 a1 ee 3e c4 37 95 3e 46 de 6f be b9 f8 0e 3e
       0.46607596 0.29144108 -0.23424634 0.13962068
000180 b0 8e 84 3e 28 5e cc 3c 55 e7 0a be 60 d3 0b 3e
       0.25890112 0.024947241 -0.13564809 0.13654852
000190 fa a9 a6 be df 33 aa bd e6 16 8f bd b9 db af 3e
       -0.32551557 -0.08310675 -0.069867894 0.34347323
0001a0 56 0f 0b 3e ae ca da 3d 01 03 2f 3d 70 6e 81 bc
       0.13580069 0.10683189 0.042727474 -0.015799731
0001b0 4f dd ed bb aa 18 bb 3d 24 e1 46 bb 49 e8 c0 3b
       -0.007259048 0.09135564 -0.0030346597 0.0058870655
0001c0 81 fd c2 be ed 61 84 be db 9c a2 3e 21 34 d4 3d
       -0.38084033 -0.2585596 0.31760296 0.10361505
0001d0 3f 74 92 3e d1 ba c4 3c 5e e6 9d be c9 99 4f 3e
       0.28604314 0.024014862 -0.3083982 0.20273508
0001e0 2f 54 91 be a6 48 8f bd 58 1a 2f 3e ae 7d a3 3c
       -0.2838454 -0.069962785 0.17099893 0.01995739
0001f0 7e 76 c8 bd 9b 3f bd bc 14 fa 8f bd 30 b7 af 3c
       -0.097882256 -0.023101619 -0.070301205 0.021449655
000200 02 b4 4f bc 48 04 3c 3d 14 44 3b be 5b 0b 0e bd
       -0.012677195 0.04590252 -0.18287688 -0.0346788
000210 f5 50 cc 3c 6d dc 70 be bb 0d 67 3d 96 80 12 be
       0.024940947 -0.23521586 0.05640958 -0.14306864
000220 55 b0 9a be b7 30 91 be 73 ea e9 3e d1 3f ca 3e
       -0.30212656 -0.2835748 0.45686683 0.39501813
000230 56 61 66 3f 34 9f 63 3f ff 2e 2f 3e 25 fe 91 3f
       0.8999227 0.889148 0.17107771 1.1405684
000240 92 08 ed 3d fa 9a ab 3e 0e a9 df be 71 d5 20 3f
       0.115739 0.33516675 -0.43683666 0.62825686
000250 ac 52 80 bf 74 2c 9a 3f 79 19 16 be e7 24 87 3e
       -1.002523 1.2044816 -0.14658155 0.26395342
000260 c5 43 8a be a4 fe 96 3e 28 06 a6 be a6 1d 9d 3e
       -0.2700483 0.2949115 -0.32426572 0.30686682
000270 6d bc ea 3d 05 bc 9a 3f 5c a8 c4 3e 29 43 91 bd
       0.114617206 1.2088629 0.38409698 -0.07092888
000280 93 ee c1 be 6f 49 10 bd 03 b6 ad be 72 0e 9c be
       -0.3787733 -0.03522628 -0.33927926 -0.3047977
000290 de 00 c6 be 71 fe 2b 3d 27 b9 64 bf 48 2c 91 be
       -0.38672537 0.0419907 -0.8934502 -0.28354096
0002a0 cc f4 59 3d 88 ea 11 3d e8 2f a8 be 31 63 90 3d
       0.053211972 0.035624057 -0.3284905 0.07050169
0002b0 54 bc 5f bd 51 c3 6d be 5a 61 73 bd 4c 8a 0f be
       -0.054622963 -0.23219039 -0.059419014 -0.140176
0002c0 91 91 4c be 05 3e 79 be 43 d8 8d bc d3 8b 26 bd
       -0.19977404 -0.24340065 -0.017315036 -0.04066069
0002d0 cb 53 b0 3b 2a e8 83 be 5a 7d 89 3e 9e 8d 4d 3f
       0.0053810827 -0.25763065 0.26853448 0.80294216
0002e0 52 55 6c 3d 13 1b 9d bf 29 3e e2 be d1 63 22 bf
       0.057698555 -1.2273887 -0.4418805 -0.6343356
0002f0 8f 8e cc bf 3e 49 46 3e c9 c2 67 bf f0 76 c6 be
       -1.5981005 0.19363877 -0.90531594 -0.38762617
000300 c1 3f b1 be 1e 18 3f bf d9 21 47 3f df 6b 89 bb
       -0.34618953 -0.74646175 0.7778602 -0.0041937674
000310 47 7c 2e bf 7e 26 52 3f 3e 7e 70 3e f8 1f 85 3e
       -0.6815838 0.82089984 0.23485658 0.26000953
000320 4a 4b 04 3f 25 0b 8c be 98 02 8f be eb a6 bf 3e
       0.5167738 -0.27352253 -0.27931666 0.37432036
000330 60 84 51 bd 05 e9 04 3e 48 22 e7 3d 5c 34 0e 3f
       -0.051151633 0.12979515 0.112858355 0.55548644
000340 4a cc d5 be a6 48 87 3d ef 0f 59 be 08 38 5a 3d
       -0.41757423 0.066056535 -0.21197484 0.05327609
000350 88 00 bd 3d c9 9a 1f 3e cc dc a9 be 00 14 63 bc
       0.09228617 0.1558639 -0.33176267 -0.013859749
000360 ed a7 39 3e b0 21 50 3e f4 88 04 3e 8a b7 ed 3c
       0.18130465 0.20325351 0.12942868 0.029018182
000370 9d ba de bd 54 82 b7 bd 46 20 bc be 6e a1 af 3d
       -0.108754374 -0.08960405 -0.36743373 0.08575712
000380 08 7e c4 bc a0 cf f7 bb 04 94 ac bd d4 dd 80 3d
       -0.023985878 -0.0075625926 -0.08426669 0.0629231
000390 a9 12 0b bd 01 53 a0 bd e8 70 c2 3d e8 01 63 bc
       -0.033953343 -0.07828332 0.094941914 -0.013855435
0003a0 e3 00 b9 3d 14 11 28 be d5 72 dc 3d c8 e3 86 3e
       0.09033372 -0.16412765 0.1076409 0.26345658
0003b0 f9 8b 89 3d f2 55 bc 3d 09 19 d8 bd 72 1f 24 be
       0.06716151 0.0919608 -0.1055165 -0.1602762
0003c0 ad 1b 59 bd 3b e3 c2 3b 36 73 dd bd 05 2d 89 be
       -0.05300491 0.005947498 -0.1081299 -0.2679216
0003d0 31 d8 1e 3d 88 48 29 3b ae 9d f1 bd e6 db 61 3d
       0.038780395 0.0025830586 -0.11797653 0.055141352
0003e0 d3 b1 8e 3d a5 ed 23 3d e8 c3 c8 bd 31 37 1b be
       0.06967511 0.040021557 -0.09802991 -0.15157773
0003f0 b7 5a 44 3f c6 21 7c be 3f f6 b4 3e 17 54 0f 3f
       0.7670092 -0.24622259 0.3534412 0.55987686

net.0.bias f4 [256]
000000 87 7c 8e bd af 69 ad bc fe ba 9e 3d 19 b4 0b bd
       -0.069573455 -0.021168558 0.0775051 -0.0341073
000010 e8 92 a2 bd 6d 2a 97 3c 07 97 e2 3c 25 00 aa bd
       -0.079381764 0.018452847 0.027659906 -0.08300809
000020 72 b8 1f 3c 0c e8 ab 3d c8 4e a8 3d f9 5c 48 3d
       0.009748565 0.08393869 0.08218151 0.04891679
000030 b8 7c ad bd bc 39 df 3c c8 51 26 3c 96 28 14 3c
       -0.08471054 0.02724921 0.010151334 0.00904288
000040 7c a0 a6 bd 3a 08 71 bd 69 52 21 bd ea 74 58 3d
       -0.08136079 -0.058845736 -0.039385233 0.052845873
000050 d3 a7 9e 3d f6 35 4c bd 08 3d 72 bd 8e e5 3c bd
       0.07746854 -0.04985615 -0.059140235 -0.046117358
000060 c9 71 f8 bc bf 93 8b 3d 73 67 18 3d 69 c7 8a bd
       -0.030327694 0.0681529 0.037208032 -0.06776316
000070 e1 6e b6 3c 62 8f d0 3d 8e d6 02 3d b8 e5 e3 3c
       0.022269668 0.10183598 0.031942897 0.0278195
000080 25 2f bd 3c df e9 54 bd bc ee 3e 3d 3a 3b c0 bc
       0.02309377 -0.05198085 0.046614394 -0.023465741
000090 f7 b3 01 3c 82 c4 cc bd bd dc 6d 3d ea 78 28 bd
       0.007916442 -0.099984184 0.05807184 -0.041130938
0000a0 4a 10 3d 3d 0e d6 6a bd 8c fd 5d bd 7e 34 6e 3d
       0.046158113 -0.057333045 -0.05419688 0.05815553
0000b0 f3 2f c7 bc 15 65 74 3d 69 89 76 bd 81 80 39 3c
       -0.024314856 0.05966671 -0.06018964 0.011322142
0000c0 44 65 69 3c 80 51 9c bd 63 4b a5 3d 40 dc 2b 3d
       0.014245335 -0.076327324 0.080710195 0.041958094
0000d0 75 77 59 bd 1c 8f 1e bd 3c eb ff 3d 0d 52 45 bd
       -0.05309244 -0.0387107 0.12496039 -0.048173953
0000e0 82 3e 09 3d 25 de 8b 3c fc fa 99 bd 93 16 b2 3d
       0.033506878 0.0170737 -0.075185746 0.08695712
0000f0 c1 8e 59 3d 4f 66 78 3d 9c 25 61 bd c5 fd f8 3c
       0.053114656 0.060644444 -0.054967508 0.030394444
000100 60 d9 39 3d 0c 96 0b 3c 42 1e 1d bd 77 73 74 3d
       0.04537332 0.008519661 -0.038358934 0.05968043
000110 d9 f5 84 3c 5d 52 95 bc 4c 24 ad 3b 58 c4 00 3d
       0.01623051 -0.01822775 0.005283868 0.031437248
000120 38 51 43 3d 35 61 7b bd d8 f7 7b bd 85 47 9a bc
       0.047684878 -0.061372 -0.06151566 -0.018832931
000130 3a 31 79 bc d8 a2 8c 3d e0 4d d8 3c 01 a3 7d 3d
       -0.01520949 0.068669975 0.026404321 0.06192303
000140 2c 6a 9c 3d b8 2a 74 bd 43 29 25 3d ca 8a 50 bd
       0.07637438 -0.059611052 0.040322553 -0.05091361
000150 dd b6 90 3d 4a 97 61 3d 79 fe 91 3d f0 48 1a 3d
       0.070661284 0.05507592 0.07128615 0.037667215
000160 b2 35 39 3d 7f d5 13 3d 2a 05 8b bd c5 e1 74 bc
       0.045217223 0.036092278 -0.06788094 -0.014946406
000170 1b 3a 49 bd 72 22 b6 3d 4e 98 35 bc dd 21 8c bd
       -0.04912768 0.08893289 -0.011083676 -0.068423964
000180 a3 59 97 bb b8 24 32 3d 8a a5 d4 3c 7e 17 ac bd
       -0.00461884 0.04349205 0.025957841 -0.08402918
000190 50 8b cc 3c 90 d7 d2 bb 6e 39 4f bd e9 ce 39 3d
       0.024968773 -0.0064343885 -0.05059188 0.04536334
0001a0 6d 2e 0f bd fd 1f 9e 3b dd 7c b3 3d b1 44 c3 3d
       -0.034956384 0.0048255906 0.0876405 0.09534586
0001b0 4b f7 e7 3c c6 18 2e bd b6 77 2a bc a1 88 58 bd
       0.02831616 -0.042504095 -0.010404518 -0.052864674
0001c0 5c 76 9a bd 7d 55 07 3e 41 a5 2f 3e a6 7b 7f 3c
       -0.075421065 0.13216205 0.17152883 0.015593445
0001d0 9f be d0 3c d8 50 ab bc 43 ce 6d bd cc 2d 8e 3c
       0.02548152 -0.020912573 -0.058058035 0.017355822
0001e0 b1 e1 30 3d e4 04 0c bd c0 59 e4 3d 45 6d 83 3d
       0.043183986 -0.03418435 0.11149931 0.06417326
0001f0 6d 48 c1 bc 95 78 4a 3d c9 85 4c be 01 d9 81 3d
       -0.023594106 0.049431402 -0.1997291 0.06340218
000200 4f 1b a2 bd fb 36 a3 3b 72 8f 07 bd 11 f0 e1 3d
       -0.07915365 0.0049809194 -0.033095784 0.11032117
000210 a2 46 9f bd 54 6b 72 bd 22 44 8f 3c 46 51 fd 3c
       -0.07777144 -0.059184387 0.017488543 0.030922543
000220 30 03 20 bd ad 2c 82 bc fe b4 8f 3d f2 f0 cd 3c
       -0.03906554 -0.015890444 0.070169434 0.025139306
000230 c2 84 46 3d f2 10 51 3d 45 c2 37 3c c0 e5 86 3c
       0.04846645 0.05104155 0.011215751 0.016466975
000240 a3 ae 06 3e 3f cd d3 3c 00 65 26 3c 58 ed 5c 3d
       0.13152556 0.025854705 0.010155916 0.053937286
000250 49 47 a1 3d ae 99 b2 bc d6 8d 69 3c d9 3d b6 3c
       0.07874925 -0.021801796 0.014255008 0.022246288
000260 74 34 1d bc d7 ce 89 3d 19 b0 db 3c 47 24 5d 3d
       -0.009595025 0.06728905 0.026817368 0.053989675
000270 90 77 10 bd cb 01 55 3d a6 9b 99 3d 46 79 13 bd
       -0.035270274 0.052003663 0.07500391 -0.036004327
000280 52 74 a8 3d db 29 59 3d 61 1f b4 3d 6c b2 52 bc
       0.08225311 0.053018432 0.087950476 -0.012859922
000290 01 dc 8d 3b 70 3a fb bc 0c e3 0f bd d6 56 f0 3b
       0.004329205 -0.030667514 -0.03512864 0.0073345704
0002a0 ef b2 d7 3a 60 de 80 bd 83 c4 72 3d 54 fb 1e bd
       0.0016456525 -0.06292415 0.05926944 -0.038813904
0002b0 b4 39 7b bd 10 56 af bd 2e 80 d6 3b 49 29 1b 3d
       -0.061334327 -0.08561337 0.006546042 0.03788117
0002c0 3b 2f af 3d cb 9c 7e bc 95 17 05 3d b4 8d a5 b8
       0.0855393 -0.015540312 0.032493193 -7.8942074e-05
0002d0 60 1f ad bd 5a d1 dc 3d 27 2a 91 3d c6 04 2d 3d
       -0.0845325 0.10782118 0.07088118 0.04224088
0002e0 a8 cf cb bc 31 be 96 bd 8e 7e 70 bb 29 95 ac 3a
       -0.024879292 -0.07360495 -0.0036696526 0.0013167012
0002f0 25 ea 62 3d ca 78 5e be d4 67 a1 3d bc ee 17 3d
       0.05539908 -0.21725765 0.07881132 0.03709291
000300 71 27 bd bd d9 ae 3e bd 3b f0 74 3c a3 35 9f 3d
       -0.092360385 -0.046553466 0.0149498535 0.07773902
000310 6b c6 95 bd 8c e1 a5 bd 53 74 bf bb c3 d4 94 3d
       -0.07313236 -0.0809966 -0.0058427243 0.072671436
000320 76 03 ba 3d 20 2f c1 3d bd af da bb 17 8c 46 3d
       0.09082691 0.094328165 -0.0066737817 0.048473444
000330 a9 f0 8d bd 6a 15 57 3d c3 9a 4a bd 1b ef 93 3d
       -0.06930668 0.052510656 -0.049464 0.0722334
000340 ad 6a 12 bd 7f 52 d7 bc fc 91 79 bd 0b c1 99 bd
       -0.035746265 -0.026284454 -0.060930237 -0.07507523
000350 f0 64 a7 3d 6d d5 06 bb 82 8c 8a bd c7 51 19 3d
       0.08173549 -0.002057399 -0.06765081 0.037431505
000360 de 72 34 3d 52 a7 17 3d 1e ea d3 bc e3 b0 65 bd
       0.04405486 0.037024803 -0.025868472 -0.056076895
000370 39 2a 34 bd 42 95 19 3c 11 61 eb 3c 93 78 08 bd
       -0.04398558 0.009373965 0.028732808 -0.033318114
000380 63 bd 14 bd b8 75 53 be 6c be 97 bd f8 26 de bd
       -0.036313426 -0.20650375 -0.07409367 -0.108472764
000390 03 ec 6f bd d1 bd bc bd c1 83 d8 3c 89 34 67 3d
       -0.058574688 -0.09215892 0.026430013 0.056446586
0003a0 2e 57 2a 3d 6b ba a3 3b 44 3f b2 3d fe 61 15 3c
       0.041587047 0.004996588 0.08703473 0.009117601
0003b0 f8 91 08 be 19 de 50 bd 90 9b 73 3d b0 5d 3e bd
       -0.13336933 -0.05099306 0.059474528 -0.046476066
0003c0 5b cb 0a 3d 01 cc 45 3d f5 09 29 bc c0 81 bb 3c
       0.03388534 0.048290256 -0.010317315 0.022889018
0003d0 3f 2e 86 bd 27 1d 00 3b ab 09 de 3d 99 83 cc bd
       -0.065517895 0.0019548626 0.10841688 -0.09986038
0003e0 f3 df 8a 3b 0f 93 82 bc d1 bd ff bc b7 d2 fc bc
       0.0042381226 -0.015939264 -0.031218441 -0.030862195
0003f0 79 74 94 3c 28 36 d6 bb 90 51 cf 3c 88 02 ad 3c
       0.018121945 -0.0065372176 0.025307447 0.021119371

net.2.weight f4 [128, 256]
000000 03 88 7c bd b2 55 c6 3c 7f b2 09 3c 1c 32 3a 3d
       -0.06165315 0.024210785 0.008404373 0.045457944
000010 8c aa 20 bb 91 4b a5 bd 32 4f 3b bd 89 b7 85 bd
       -0.0024515716 -0.08071054 -0.045729823 -0.06529147
000020 89 91 92 bd 41 54 9f 3c 8f 2d aa 3c 1f e7 40 bd
       -0.07156665 0.019449355 0.020773677 -0.047095414
000030 88 43 4e bd 90 98 44 bc 3f f5 58 bd f5 1c 61 bc
       -0.05035737 -0.011999264 -0.05296826 -0.013739814
000040 3c d9 4b bd 20 5e a0 3c c4 26 b3 bc 0b 90 18 3b
       -0.049767718 0.019576132 -0.02186907 0.0023279216
000050 b3 fb 56 bd e1 33 42 bd 41 45 12 bd 1c 10 27 bd
       -0.052486133 -0.047412757 -0.035710577 -0.040786847
000060 b3 09 04 bc 00 6c ca bb 29 2c 40 3d e2 61 59 b9
       -0.008058953 -0.0061774254 0.046917114 -0.00020731197
000070 41 49 97 bc 7b 42 31 bd e3 b9 90 bd 11 64 37 bd
       -0.018467547 -0.04327629 -0.07066705 -0.044773165
000080 e6 6c c8 bb 3e 0c e2 bc 26 36 5d bc 02 c0 b1 bc
       -0.0061164973 -0.027593728 -0.0135016795 -0.021698002
000090 8d ed 38 bd ed 53 89 bd 0f 2e 8c bc 04 84 22 bd
       -0.04514842 -0.06705461 -0.017111806 -0.03967668
0000a0 01 38 90 bd 41 19 8d bc 13 c0 69 bd cc bd 1e bc
       -0.07041932 -0.017223956 -0.057067942 -0.009688806
0000b0 8b 78 e9 3c e7 ad ef 3c 31 58 25 bd 39 96 80 bd
       0.028499862 0.029257728 -0.04036731 -0.06278653
0000c0 f1 4b 91 bd 16 29 74 3d a8 43 f9 bc aa fc 82 bd
       -0.07094563 0.059609495 -0.030427769 -0.06395848
0000d0 ba f0 0c bd c8 6a b3 bd aa 57 c1 bd 32 1a 79 bb
       -0.034409262 -0.08760601 -0.09440549 -0.0038009998
0000e0 4a ea 07 bc 28 3d 53 bd d0 9c 75 bc 9a 9c ed bc
       -0.008295605 -0.051571995 -0.014991 -0.029005338
0000f0 fe 63 88 bd a7 d4 e3 bd 7c 2f 33 3d e3 9c fe 3a
       -0.06659697 -0.111245446 0.043746457 0.0019425418
000100 bb 2a 25 3d 3f 83 8b bd 2c d7 14 bc ea 95 c1 bd
       0.040323954 -0.068121426 -0.009084504 -0.09452422
000110 57 41 40 bd 75 d7 2c 3d 98 c4 ed ba 48 51 cd 3c
       -0.046937313 0.042197663 -0.0018140255 0.025063172
000120 ab 65 8b 3c c1 01 26 bb 93 77 c4 bb 00 d6 fb bc
       0.017016253 -0.0025330635 -0.0059956997 -0.030741692
000130 b0 b3 2f bd 36 e4 70 bd f3 2b 6a bd 4b b1 a3 3c
       -0.042895973 -0.05881139 -0.05717082 0.019982
000140 5d 1a 38 3d ab 1b af 3c 8b b5 52 bc 2e e7 cd bd
       0.044947017 0.021375498 -0.012860666 -0.1005386
000150 40 20 9f bd 75 23 2d 3d 2e be 89 bc bd 8a 80 39
       -0.07769823 0.042270143 -0.016814318 0.0002451743
000160 6a b0 89 bd e7 c7 8d bd 83 71 77 bd bf 92 b3 bc
       -0.067231014 -0.06922894 -0.060410988 -0.02192056
000170 83 42 92 bd ca 80 98 bd 09 cc d0 bb d8 54 50 bd
       -0.07141592 -0.074464396 -0.006371979 -0.050862163
000180 dd 3a 79 bd 24 05 bd bd d9 40 b5 bd dd 8f d0 bd
       -0.060847152 -0.09229496 -0.08850259 -0.1018369
000190 bf c4 8a 3c fd 91 80 bd c1 2c 64 bd 5d ed 92 3b
       0.016939519 -0.06277845 -0.055706743 0.0044838623
0001a0 7c 24 11 bb 80 71 c4 3c 70 f8 dd bd aa f3 b4 bc
       -0.002214699 0.023979902 -0.10838401 -0.022088844
0001b0 10 ed 85 bd a8 d1 cc bd 18 67 6b 3c 2c 95 2d bb
       -0.06539357 -0.10000926 0.014367841 -0.0026486618
0001c0 0a 70 2a 3d 47 9d 36 bd 83 3e 03 bc 77 8d 81 3b
       0.041610755 -0.044583585 -0.008010509 0.0039536315
0001d0 9d 87 a3 bd 1e 99 b3 ba 6f 9d a6 bd 10 51 20 bd
       -0.079848506 -0.0013702249 -0.08135497 -0.039139807
0001e0 f0 42 28 3c 3b 14 2d bd 19 4b 7c bd ff 10 85 bd
       0.010269865 -0.04225562 -0.061595056 -0.064973824
0001f0 ae e3 81 bc e0 2f bb bc 70 22 24 3c 0a c3 de bc
       -0.015855636 -0.022849977 0.010017976 -0.027192611
000200 98 9d 09 bd 21 77 92 bd a7 d0 91 bd 75 36 1a bd
       -0.03359756 -0.07151628 -0.071198754 -0.03764959
000210 4e 6d 96 bd 09 2b de bd 87 7e 78 bd f8 c7 8e bd
       -0.07345067 -0.10848052 -0.06066754 -0.06971735
000220 ff 09 c4 bc 3e 80 2b 3c c7 3c 92 bd 64 a2 dc 3b
       -0.023930548 0.010467587 -0.071404986 0.0067332257
000230 19 51 56 bc c4 ab e3 bc 9d 40 77 3c f6 6a de bd
       -0.013080859 -0.027791865 0.015091089 -0.10860245
000240 aa 13 19 bd 0e dc 26 bd d4 c4 16 3d 07 a0 6a bd
       -0.03737227 -0.040737204 0.036808804 -0.05728152
000250 9a b2 50 bd 29 4f ff bb ef 4c 55 ba 89 3e 01 3d
       -0.050951578 -0.007791419 -0.0008136769 0.03155378
000260 f6 ea 89 bd 12 0a ef 3c a5 b4 7a bd 68 48 00 bc
       -0.06734268 0.029179607 -0.061207432 -0.007829763
000270 13 33 e7 bc c5 92 81 bd 7a 01 aa bd 56 21 71 bd
       -0.028222596 -0.06326822 -0.08301063 -0.058869682
000280 e3 97 0c bc c9 44 fb bd 05 bb fa bc 2a e0 80 bd
       -0.0085811345 -0.12268979 -0.030606756 -0.06292756
000290 b4 0b b2 3c cb cb 88 bd 81 cf 59 bd 3d 6f 23 bd
       0.021734096 -0.066794954 -0.053176407 -0.039901007
0002a0 37 e7 bb bd 93 20 53 bd 13 bd 24 bd 06 73 90 ba
       -0.0917496 -0.051544737 -0.040219378 -0.0011020608
0002b0 71 9a 96 bd 3b 78 35 bd e0 45 8a 3c f5 c2 ff 3c
       -0.07353676 -0.044304114 0.016879022 0.031220892
0002c0 82 5d 3f bd c9 a4 18 bc fe 20 d0 3c 8b 0b 70 3d
       -0.046720035 -0.009316632 0.025406357 0.05860476
0002d0 c6 57 a4 3b ef dc 82 3b be 04 4c bc 28 39 8c bd
       0.005015346 0.0039936225 -0.0124523025 -0.06846839
0002e0 3e 40 ca bc 32 98 f3 3c 05 26 03 3b b7 72 94 bd
       -0.024688836 0.029735658 0.0020011675 -0.072484426
0002f0 ea 6d c8 3c 33 c1 77 bd f7 4b 85 bd 8b 65 4f bd
       0.024466474 -0.060486984 -0.0650863 -0.05063395
000300 f9 61 4c bd 5b ae cd bd 3d 29 9a bd 3a 5c 7d bd
       -0.04989812 -0.10043021 -0.07527397 -0.061855532
000310 9c 0a 2a bd 8b 81 c8 3b af 8a 19 3d 9e 3b 0a bc
       -0.041514024 0.0061189584 0.037485775 -0.008437065
000320 e3 63 1d bc bb 01 72 bc ea 0b e7 3b 74 2f 69 bd
       -0.009606334 -0.01477092 0.007050981 -0.05693002
000330 9a da 7b bd 91 18 56 3c fa 20 09 3d 8c d3 26 bd
       -0.06148777 0.0130673805 0.033478715 -0.04072909
000340 eb 6b 69 3c d2 67 ec bc 0a 01 c6 3c 78 73 73 bc
       0.014246921 -0.0288581 0.024170417 -0.014859073
000350 79 b6 24 bb 71 6e 33 bc 52 9f ae 3c 37 9d 3c bd
       -0.0025133176 -0.010951624 0.021316204 -0.04604837
000360 4c 99 ef bb d6 d5 74 bd 9b 58 2d bd 22 07 38 3d
       -0.0073119756 -0.059774242 -0.04232083 0.044928677
000370 19 ce c0 bc fb b8 8a 3d 9c 36 93 3c 0c 87 7c bc
       -0.023535775 0.067735635 0.017970376 -0.015413057
000380 3c 34 2d 3b 24 05 37 3d d5 18 31 3c c1 f2 22 bd
       0.002642884 0.044682637 0.010809143 -0.03978229
000390 f5 cf 24 3d db 02 06 bc 8a ef 96 3c ac d1 f5 bd
       0.040237386 -0.008179392 0.018424768 -0.12002882
0003a0 14 da ae bd 35 bb 1c bd e3 67 53 bc 28 35 38 bc
       -0.08537689 -0.038264472 -0.0129031865 -0.011243142
0003b0 6d 1e 11 3d 08 6d c7 bd 2b 5f 98 bd 3a cc 51 bd
       0.035429407 -0.09737593 -0.07440027 -0.051220156
0003c0 05 ac 0b 3d 43 bf fd 3c b2 f8 55 bd 1c c1 59 3c
       0.034099597 0.03097499 -0.052239127 0.01329067
0003d0 fd 04 0d 3b ba d1 46 3b 7f f4 41 bd 04 fc bb bc
       0.0021517866 0.003033741 -0.04735231 -0.022947319
0003e0 c4 99 0d bd 10 96 e8 bd f5 4b 26 bd 34 39 5f bd
       -0.03457047 -0.11356747 -0.040599782 -0.054497913
0003f0 eb fe d3 bb 72 a7 38 bd 82 36 2a 3b 23 ae b1 3c
       -0.0064695976 -0.045081563 0.002597243 0.02168948

net.2.bias f4 [128]
000000 c3 d2 f3 bc 14 f4 af 3d 7d e4 70 bd 07 9a 58 bc
       -0.029763585 0.08591476 -0.058811653 -0.013220317
000010 5b 45 25 bb 2f 8e 9a bd 45 3e 81 bd 82 50 db 3d
       -0.002521834 -0.075466506 -0.06310705 0.10708715
000020 08 44 1a be bc c8 e4 bc 2e 94 02 bd d1 47 ad 3c
       -0.15065014 -0.027927749 -0.031879596 0.021152409
000030 43 1a 90 3c 84 4c e8 3c a8 58 01 bd 8a 1b e9 bb
       0.017590648 0.028356798 -0.03157869 -0.0071138786
000040 a6 6f d5 ba 04 e4 da bb 44 83 ab bd 39 7f 04 3e
       -0.0016283884 -0.0066800136 -0.08374646 0.12939157
000050 e1 c7 57 bd 9e e0 be 3d eb 2a 22 3c 3a 5e 9d bd
       -0.052680854 0.09320186 0.009897928 -0.07683988
000060 af 9a 37 3c 19 e7 54 bd c7 50 8e b9 7f db 74 bd
       0.011206313 -0.051978204 -0.00027144534 -0.05977964
000070 e4 a8 f1 bd 00 eb e7 3b d6 1a 77 3c aa 94 7a bd
       -0.117997915 0.0070775747 0.015082082 -0.061176933
000080 71 d3 5a bd f3 5a a8 3c 20 fc 2d 3b 35 f3 9c 3d
       -0.053424302 0.02055118 0.0026547983 0.076635756
000090 1a 70 a8 3c 3d a6 2d 3d cd 64 18 3d 0d a8 27 3d
       0.020561267 0.042394865 0.037205506 0.04093175
0000a0 7c f6 68 bc 58 d2 ac bc 42 78 33 3d c0 4f 97 3c
       -0.014218923 -0.021096393 0.04381586 0.018470645
0000b0 14 bf 11 3d d9 57 12 bd b5 92 bf bd 0a 0f 65 bd
       0.035582617 -0.03572831 -0.09354154 -0.055922545
0000c0 39 04 f6 3b 65 40 6e 3d 18 3f 64 bd 28 99 82 3d
       0.0075078276 0.05816688 -0.055724233 0.063768685
0000d0 37 fb 0e 3c 74 3e 26 3c cd 6f a8 3b 5a d9 12 3c
       0.0087268865 0.010146726 0.005140281 0.008962953
0000e0 c1 9a dc bc ec e6 fe bb d2 ba 55 3d 1f ae 1d bd
       -0.026929261 -0.007778993 0.05218012 -0.038496133
0000f0 50 3a e8 3c 1a f6 41 bd 93 db 95 3d 71 aa a4 bd
       0.028348118 -0.04735384 0.07317271 -0.080403216
000100 4c 65 41 3d 12 95 3a bd 41 d3 da bb d7 c3 44 3c
       0.047215745 -0.04555232 -0.0066780155 0.0120095825
000110 20 d8 ba 3d e5 ad d4 bd 83 39 88 bd 54 f8 c9 bd
       0.09123254 -0.1038473 -0.066515945 -0.09861818
000120 71 c6 b1 bd 80 80 0e 3c 75 7c f0 3b c2 a3 b7 bd
       -0.08680428 0.008697629 0.007339055 -0.08966781
000130 50 22 a6 3b 1d 80 c5 3b cf 15 bf bc c5 d6 af bc
       0.0050700083 0.006027235 -0.023325829 -0.021464715
000140 ed a3 42 3d 2b c9 54 bd 8b 3d 47 bd b9 1d 8e 3d
       0.047519613 -0.05194966 -0.048642676 0.06939263
000150 73 f4 14 bc da 6b f8 bc 64 58 b6 bc b8 e6 fa 3d
       -0.009091484 -0.030324865 -0.022258945 0.12251037
000160 87 47 08 3d 30 33 05 bd 65 77 87 3d a2 91 a9 3c
       0.03327134 -0.03251952 0.066145696 0.020699326
000170 cd 62 75 ba 16 6c 8c 3d bb 9b 84 3c 88 bb af bd
       -0.0009360731 0.06856553 0.01618754 -0.085806906
000180 f0 03 c6 bc 20 7f 92 bd 6a d3 c1 bd 1b 86 fb 3c
       -0.0241718 -0.071531534 -0.09464152 0.030703595
000190 89 aa 98 bc da 88 f8 bd 85 2a 6a bd 24 1e 06 3d
       -0.018636005 -0.12135477 -0.057169456 0.032743588
0001a0 05 f3 04 3d 71 bb 56 bd 02 57 dc bd fc c4 87 3c
       0.032458324 -0.05242485 -0.10758783 0.016573422
0001b0 a3 fe 52 3e a0 6c 4a 3c 00 3a 58 ba 4a 37 6f 3d
       0.20604949 0.012355 -0.0008248389 0.058402337
0001c0 f2 e0 34 3b 9c 33 33 3d bd 62 2e 39 f0 76 fa 3b
       0.0027599898 0.04375039 0.00016630716 0.007643573
0001d0 bd 45 b6 bc 2c e1 a4 bd 3c ad c2 3c e6 76 40 bc
       -0.02225005 -0.080507606 0.023764245 -0.011747098
0001e0 32 0c 36 3c e0 9e b0 bd d5 36 c6 bd 22 48 88 bd
       0.011111306 -0.08624053 -0.09678427 -0.06654383
0001f0 a1 1c 0a bd 8f 63 a3 bd 49 fb a5 bd f3 32 cd bd
       -0.03371871 -0.07977974 -0.081045695 -0.100194834

net.4.weight f4 [32, 128]
000000 f8 bf a1 bd 1d 13 ee 3d 3d 51 cb bc 2f f7 88 bd
       -0.07897943 0.11624739 -0.02481901 -0.066877715
000010 c1 ec cb bb a0 86 ce 3d f1 cf 57 3e cb c8 2d 3d
       -0.0062232916 0.100842714 0.21075417 0.04242782
000020 d0 41 67 bd 91 4a 37 3e 9e 7d 02 bd 38 70 c9 3d
       -0.056459248 0.17899539 -0.03185808 0.09835857
000030 02 cc 5b bd 03 f5 d2 bd 1c b2 7f 3b d0 8a 83 bd
       -0.053661354 -0.103006385 0.0039016074 -0.06422961
000040 e4 d4 71 bc 8f 65 17 3e 68 8d 91 bd c5 08 14 3d
       -0.01476023 0.14784835 -0.07107049 0.036141176
000050 ed 68 d0 be 98 b3 1f bd 53 e1 03 bd 53 5e 7d bd
       -0.40705052 -0.038989633 -0.032197308 -0.061857533
000060 89 5d 14 3e ea d7 c7 bc 44 40 f1 bb 14 1c 9e bd
       0.14488806 -0.024394948 -0.0073623974 -0.07720199
000070 97 e5 e3 bd e2 6d 31 bd 5e db 09 3e 4a 90 9d bd
       -0.11127775 -0.043317683 0.13462588 -0.076935366
000080 6d f7 66 3e a9 3e 94 3e a6 ed 4b 3e 51 e5 20 3d
       0.22555323 0.28954056 0.19914874 0.039281193
000090 bc 2f 18 3e ca ee 36 bd 01 40 05 3b 40 69 3a bd
       0.14861959 -0.04466132 0.0020332339 -0.04551053
0000a0 b2 ed 5f bd c1 81 3e bd 84 4c b6 3d 09 d4 69 3d
       -0.054670043 -0.04651046 0.08901313 0.057086978
0000b0 4a 31 3c 3e 6d 8a 77 bd 17 e4 32 3e 41 01 f6 ba
       0.18378177 -0.060434747 0.17469822 -0.0018768684
0000c0 83 40 67 bd e6 c1 81 3d 55 0c 15 bd 70 27 0c bd
       -0.056458008 0.06335811 -0.036388714 -0.034217298
0000d0 2b 25 ff bc ed 6b 2e 3e 32 f6 05 3e 69 a2 21 3e
       -0.031145653 0.17033358 0.13082197 0.15784611
0000e0 b0 df c7 3b f5 5a 01 bd 23 8f bf 3d 75 1a 7a 3d
       0.0060996637 -0.031580884 0.09353473 0.061060388
0000f0 88 bd 88 3d 8b 2d 43 bd 97 6b e2 3d 4c c0 07 3e
       0.06676775 -0.047650855 0.110556774 0.13256949
000100 af 45 df bc 40 cc d4 3d 19 a6 e1 bc 31 a8 2d 3e
       -0.027254907 0.1039052 -0.027545022 0.16958691
000110 a4 f5 e1 3d 60 f1 74 bd 61 88 2f 39 ef 4f e5 bc
       0.1103318 -0.059800506 0.00016740106 -0.027992217
000120 29 36 8d 3d 61 48 b1 3d 9d ab b2 3d ae 11 f0 bc
       0.06895096 0.08656383 0.08724139 -0.029305305
000130 36 55 08 bd c6 6a 81 3d 95 8f a0 bc e1 43 b7 bb
       -0.03328439 0.063191935 -0.019599715 -0.0055928086
000140 9c 8d 8f bd d8 ec 39 3e 2a 29 02 bd 19 f5 92 bd
       -0.07009432 0.18156755 -0.03177754 -0.07175655
000150 c3 ba bc 3c 9e a4 d1 3d c6 0a 2d bc b9 16 1c 3c
       0.023038274 0.10236476 -0.010561651 0.009526902
000160 e9 57 cc 3d e2 87 5b bd 54 68 90 3c fd d9 7f 3d
       0.09977705 -0.053596385 0.017627873 0.06246375
000170 2f f2 1d bd d6 5e f6 3d dd f5 0c bd 34 82 24 bb
       -0.038561042 0.12029807 -0.03441416 -0.0025102021
000180 e7 3f 95 bc fa c5 41 3e 92 33 38 3d 47 76 4c bd
       -0.018218948 0.18923178 0.044971056 -0.049917486
000190 68 4b 44 bd fe e0 6e 3e 47 bd 90 3d 0e 7f 97 bd
       -0.047923476 0.23328015 0.07067352 -0.07397281
0001a0 cc 11 cc 3d 38 5a 96 bc 05 f0 aa 3d 02 b6 67 3d
       0.09964332 -0.018353567 0.08346561 0.05657006
0001b0 92 0a 11 bd 58 c9 36 3d 02 1a 99 bd 0d bf 2e 3e
       -0.03541047 0.04462561 -0.07475664 0.17065068
0001c0 f2 db fd bc 17 92 55 bd 40 1f 50 3e 4f 88 50 bd
       -0.030988667 -0.052141275 0.20324421 -0.050911244
0001d0 a6 5c 0a 3e e6 1e d8 bb 98 b8 d1 bc 2e 32 3b bd
       0.13511905 -0.0065954803 -0.025600716 -0.045702152
0001e0 6a c0 49 bc 5c 58 1c bd a0 69 08 3e 8d 96 4a 3d
       -0.0123139415 -0.038170204 0.13321543 0.049459983
0001f0 47 32 cd 3d c7 23 25 3d a1 56 d7 bb 2c db 24 3c
       0.10019355 0.040317323 -0.0065716063 0.01006202
000200 7f 4e 95 bd 46 53 62 3e 9d 19 13 bd 0f 42 45 bd
       -0.072903626 0.22102079 -0.0359131 -0.0481587
000210 d0 3a b9 3c 22 0f 39 bf ee 85 68 3e d3 cb c7 be
       0.022611052 -0.72288716 0.2270734 -0.39022693
000220 f3 b8 27 c0 7a 59 99 be 2b d9 55 3c 26 af 06 3d
       -2.6206634 -0.29951078 0.013052265 0.03288188
000230 00 d2 bf bd 82 86 34 bf b0 0b 13 bd 0b 12 b0 bd
       -0.09366226 -0.7051774 -0.035899818 -0.085971914
000240 cc 19 fc bc 51 e4 c1 be 7e 06 86 bc c2 05 40 3e
       -0.03077402 -0.37869504 -0.016360518 0.18752196
000250 51 bf e3 be f4 10 cc bd 38 b6 18 3d ed 2f 89 bd
       -0.444819 -0.09964171 0.037283152 -0.06698594
000260 0e 1e 5a 3d 3d e4 01 3d 68 d6 94 bd be 50 65 bc
       0.05325132 0.031711806 -0.07267457 -0.013996301
000270 c2 68 13 be 34 be c9 3c 51 cf 02 3e 61 3a b5 3d
       -0.1439543 0.024626829 0.12774397 0.088490255
000280 ae aa ba be ad d6 37 3e 8b f5 99 3e 7b bd d0 be
       -0.36458343 0.17952986 0.30070147 -0.40769562
000290 5b 54 1b bd 36 17 17 3d da ab 35 bc 44 3e ed bc
       -0.037922245 0.03688737 -0.011088336 -0.028960355
0002a0 a2 f6 ce 3c ed 04 a0 3d 1a 29 24 3e 65 18 0e 3e
       0.025264088 0.078134395 0.16031304 0.13876493
0002b0 1d 7f 7e be 96 eb 81 bd 8e 9c 8c 3e af b9 ba 3c
       -0.24853177 -0.063437626 0.27463192 0.022793619
0002c0 be b9 2b 3d 09 40 ee bc 15 85 10 bd 14 f3 0f 3d
       0.041925184 -0.029083269 -0.035283167 0.035143927
0002d0 d9 b0 2b bc 1f fc 89 3e 15 be d5 3e 1f 64 07 bc
       -0.0104791755 0.26950166 0.41746584 -0.008263617
0002e0 de d8 40 bf 0f 0a 82 bb 2f f5 0d be 33 dd 75 bd
       -0.75330913 -0.0039684842 -0.13863061 -0.060025405
0002f0 4b 50 c8 bd 29 c3 1f 3d 0c cc 27 3e 61 44 68 be
       -0.0978094 0.03900448 0.16386431 -0.22682334
000300 92 f1 a3 bc d7 33 14 bd 96 d4 a2 3d f4 8d cb 3d
       -0.02001265 -0.03618225 0.07950704 0.09939185
000310 b5 8a c1 bd 80 85 87 3d 86 84 d2 bb a3 40 96 bd
       -0.094502844 0.0661726 -0.0064244894 -0.07336547
000320 58 a0 55 bd f5 a1 37 3e ea a1 68 be a3 ad e4 bd
       -0.05215487 0.17932875 -0.22718015 -0.11165931
000330 e2 df 94 3d eb 17 2a be b7 02 9b 3c a2 18 83 3d
       0.07269265 -0.16610686 0.018922193 0.06401183
000340 ce 37 dd bc e7 b2 34 be 48 82 5c 3d b8 8a 6f bd
       -0.027004149 -0.17646371 0.053835183 -0.058481902
000350 59 71 05 bd c0 c3 18 be 1f 21 ba bd 9f d9 30 3e
       -0.0325788 -0.14918423 -0.090883486 0.17270516
000360 3e 81 8d 3d 47 d4 95 3b 88 85 e6 bd 70 17 e3 bd
       0.069094166 0.0045724246 -0.11255938 -0.11088455
000370 e5 49 80 3d 5a 10 2a bd 2d b9 f0 bc ce d2 1a bd
       0.06264094 -0.0415195 -0.029385174 -0.037798695
000380 12 01 fa 3c c1 90 90 3e d8 f0 16 3e e6 40 0b 3d
       0.030518088 0.28235438 0.14740312 0.03399744
000390 00 4e 8c bc 36 17 d5 bd 55 fc a8 3e 6f bd 10 bc
       -0.017127037 -0.10404818 0.33005014 -0.008834227
0003a0 cb 8d 15 bf cf cf 98 bb 6d a9 ed 3c 57 0e 7d 3d
       -0.58419484 -0.0046634446 0.029011453 0.061781254
0003b0 b7 71 71 bd ad e7 3f 3e bd ea 8b bb eb af 1c 3e
       -0.058946338 0.18740721 -0.0042699263 0.15301482
0003c0 35 a5 58 3d cf 1d 1c 3d fe e9 79 be 97 c7 2b 3d
       0.05289193 0.038114365 -0.24405667 0.04193839
0003d0 65 9f 26 3e 37 a5 b2 bd dd 95 e2 3c ee 65 28 bd
       0.16271742 -0.087229185 0.027659351 -0.041112833
0003e0 64 b9 ee 3c 2b bd 6e bd f7 71 78 be f7 68 33 3d
       0.029141136 -0.058285873 -0.24262224 0.043801274
0003f0 d6 7b 3e bf 5d 0d b7 bd 26 3c 87 3d 93 83 88 3c
       -0.7440771 -0.08938096 0.06603269 0.016664302

net.4.bias f4 [32]
000000 31 35 58 bd 18 11 98 bd 19 ee 1d 3e cb 5b f0 bc
       -0.052785102 -0.074251354 0.15422858 -0.029340645
000010 fb 5a 29 3c a1 de 89 3c e6 76 68 be da d6 dd bb
       0.010336633 0.01682979 -0.22701606 -0.006769997
000020 9c 99 47 3c e4 5a 8a 3c db 13 37 bd 39 59 19 bd
       0.012182619 0.016889043 -0.04469667 -0.037438605
000030 98 0e 62 3d d7 c9 12 bd 48 f4 bb bd 90 fa 34 bc
       0.0551897 -0.03583702 -0.09177452 -0.011046067
000040 4f ba f7 3c ef b8 78 bd c4 28 12 3c a7 c9 78 bb
       0.030240206 -0.06072324 0.008920852 -0.003796199
000050 a6 c6 d8 bc 7a 6e 95 bd 4c 4f 0a 3d 3b 80 19 bd
       -0.02646191 -0.07296462 0.03376703 -0.037475806
000060 99 d0 2f 3d 7b 0b 8b bd 39 1c 4f 3e d5 bb cb 3d
       0.042923544 -0.06789299 0.2022561 0.099479355
000070 3c 40 54 3d 7e 2e f1 3c d0 14 04 3e bf ec 1e 3d
       0.05181907 0.029441115 0.12898564 0.038799997
