IL/il_model.pth (torch, 269586 bytes, 6 tensors)

net.0.weight f4 [256, 115]
00000000: c11d b3bd 084d e53c a81d 493e 26da 11be
00000010: 7f1d 893e cdf9 353e 7832 663b 3e28 173e
00000020: 9e9c b13c d5d4 1f3e 5c25 8dbe b4b1 5c3e
00000030: bbbc 80bd e3b4 babe 4b98 c13d 235c cabd
00000040: fbc7 ecbd 0ee6 e23c 413f 653c 3341 f8bd
00000050: 5b52 073d 8293 80bd a1ce 71bf 1445 5cbf
00000060: e1a9 e23f 3f32 413f 9709 3d3f 0968 413f
00000070: fbfc a53d d6ae 163f c45b f13c 873c 993e
00000080: 3081 fa3c 2c0b 813e 31b4 a03f 19ec e4be
00000090: 9346 f8bd 86dd d53e 2d1c 9f3e 09ef f7bc
000000a0: b375 1b3f eedc b73d 8b00 9a3d e2b7 d1be
000000b0: 5cd5 7abc 6061 31be 4801 6d3e c0d4 043e
000000c0: bd2b 28be def2 4ebd 0077 003d 1a4a 543d
000000d0: a818 16bd e4bb 76be 4a45 19bd ab9f dbbe
000000e0: f62e adbe e5b7 cf3d dd26 59be 954d 3dbb
000000f0: 78de babc 13ea 023e acca bcbc facd b3bd
00000100: dc2a 28be f825 943b bd9e 913f 4102 22bf
00000110: 9b56 1b3c 8e99 17bf 36e7 cfbe cfd5 a9bf
00000120: 29e2 5c3f e1c9 f93e 6689 233f bc65 123f
00000130: 6128 153e 1764 6bbf 013e 143d c2b6 71be
00000140: 7d48 3b3f 19e4 2c40 a55c af3d 222c 073f
00000150: 6b4b d8bd 9721 a83e 6c90 3d3f 9098 ebbd
00000160: a1ea 80bc 4692 0a3e dd7f 08bd 8679 d03f
00000170: bfe6 243f d18e 7ebf e35e 703c 2346 473d
00000180: c809 94bd 9d55 093d 4a02 2dbd 00ac e2bd
00000190: 306b 753e e624 eabd 70a5 63be 373d 773d
000001a0: 6209 eb3b 353e 44bc a05e 073e 5aee c53e
000001b0: 668f a8bc e06e 15bb ed69 2fbe a2a4 bb3c
000001c0: 18ab d4bd cc0a c3bc 38e9 77bc ccce 8dbd
000001d0: 41a9 2d3e a97c 133e 37a3 a63c c352 833e
000001e0: 8653 173e c149 ef3d de72 8c3c 9e3b d4bd
000001f0: 5f80 0abe c4c0 27be 284e d6bd 438f 463d
00000200: 30d3 c13d 096a ebbd 07c0 563e 8738 16be
00000210: 039b 5d3d 101d 1fbe 57ce 003e afea 12bd
00000220: 0154 683e a6c1 20bf 41a4 61be 6d39 81bd
00000230: 24e5 05c0 718a e33e bae9 a5bf 36ea 223e
00000240: 7db0 29be d1e5 5dbc 9793 d6be af7e 1f3e
00000250: ad10 56bf e988 55bf 3be1 303f 7893 aebe
00000260: 2bbf 35bf fcfe 55bf d8bb 41bf 3f22 8d3e
00000270: 6876 01be 1b59 473e 9070 a23f d867 b83d
00000280: 1a83 83be 720a debc f688 8c3d 3c03 e53d
00000290: abcc 593e fdd8 1f3d 664e d13d 9f10 523c
000002a0: 5b9a abbd 7c8e 0a3e 9a10 87be 1e22 75bd
000002b0: 4e45 9a3c 7d0e f3bb 993b 58be 52ae f5bc
000002c0: 1dc4 973e 10e7 9f3d 5b5f 833e 92e4 7d3d
000002d0: 6452 c7bc 92dd 8c3e dbcb de3e 38d5 9a3d
000002e0: c18b 353f 477e ce3e 5159 dfbe b509 8a3e
000002f0: 399e 2b3c 9c6d 173f 5b20 a1bf 2098 3abf
00000300: 57ab 0a3f efc7 fabe c1d8 0ebf 7106 063f
00000310: c76c f1bf f4e3 943e 8dbf 5f3f 0860 21bf
00000320: 7991 b33f 0195 2e3f d4e1 bebe bc08 1a3e
00000330: b3a4 b6be 6d23 753c eb4b 92be 3438 a7bd
00000340: 5694 4e3e 2071 a53d 3411 22bc 41a7 a1bc
00000350: 519c 1d3d 1d18 543e 9709 c03c 0ec3 303d
00000360: 33c6 83bd 5f34 99be 4ca6 af3d c98e 973a
00000370: 8393 123c 3740 cb3d 6e9e 15be e1a1 2fbd
00000380: 7cc5 dcbc d25d 2d3d 38f7 ce3d c251 af3d
00000390: 5985 f63e c05c 913b 30b6 043d 8f52 b5be
000003a0: 06e0 d4bd 546f 14bd fb9f 31bd d38e 3d3e
000003b0: ddb5 cb3c 3dd4 c23d 3233 cbbd a330 37bd
000003c0: bbc3 3b3e 29f7 f7bd 2792 6cbc e2b3 15bd
000003d0: e41a c63c 7ef2 533e 7ca0 8a3a 2faf fd3d
000003e0: afd5 a8bd 750e 90be e9bd 513b 2584 58bc
000003f0: 07fb 3cbf 6373 afbf a2e2 4ebe 0dcf 263d
-0.087459095 0.027990833 0.19640219 -0.14243373 0.26780316 0.17771073 0.0035125297 0.14761445
0.021681126 0.15608533 -0.27567565 0.21552163 -0.062859975 -0.3646613 0.09452876 -0.09880855
-0.11561581 0.02769759 0.013992132 -0.12121811 0.033037525 -0.06278135 -0.94455916 -0.86042905
1.7708093 0.75467294 0.7384276 0.7554937 0.08104893 0.5886053 0.029462703 0.2992899
0.03057918 0.25203836 1.255499 -0.44711378 -0.12122836 0.4177057 0.31076184 -0.030265348
0.6072647 0.08977686 0.07519635 -0.40960604 -0.015309658 -0.17322302 0.2314502 0.12971783
-0.16422935 -0.050524585 0.031363487 0.05182848 -0.036644608 -0.24095112 -0.037419595 -0.42895254
-0.3382489 0.10142497 -0.21206231 -0.0028885354 -0.02281116 0.12784605 -0.02304586 -0.08779521
-0.164226 0.004521128 1.1376568 -0.6328469 0.009481098 -0.5921868 -0.40606087 -1.3268374
0.86282593 0.48786834 0.6388153 0.57186484 0.14566185 -0.919496 0.036191944 -0.23604873
0.73157483 2.701422 0.085625924 0.52801716 -0.1056126 0.32838127 0.74048495 -0.11503708
-0.01573688 0.13532361 -0.033325065 1.6287086 0.6441459 -0.9943667 0.01467106 0.048650872
-0.07228428 0.033528913 -0.04223851 -0.11067963 0.2396667 -0.11432819 -0.22231078 0.060361113
0.0071727494 -0.011977722 0.1321969 0.3865841 -0.02057619 -0.0022801682 -0.17130251 0.022905651
-0.10384196 -0.02380886 -0.015131287 -0.06924209 0.16959096 0.14403023 0.020341499 0.2564908
0.14777955 0.11683989 0.017144617 -0.103629336 -0.13525532 -0.16382128 -0.10464126 0.04847647
0.09464109 -0.11494834 0.2097169 -0.14670001 0.05410291 -0.1553843 0.12578712 -0.035868343
0.22688295 -0.62795484 -0.22035314 -0.06309781 -2.0921106 0.4444156 -1.2961953 0.15909657
-0.16571231 -0.013543562 -0.41909477 0.1557567 -0.83619195 -0.83412033 0.69093674 -0.34096885
-0.70994824 -0.835922 -0.7567725 0.2756519 -0.12642825 0.19467585 1.2690601 0.090041816
-0.2568596 -0.02710459 0.06862061 0.111822575 0.21269481 0.039025296 0.102200314 0.012821346
-0.0837905 0.13530916 -0.26379853 -0.05984699 0.018831875 -0.0074174986 -0.21116485 -0.029990349
0.2964181 0.078077435 0.25658688 0.06198556 -0.02433128 0.27512795 0.43514904 0.075601995
0.7091637 0.40330717 -0.4362283 0.2696053 0.010474735 0.59151626 -1.2587999 -0.72888374
0.54167694 -0.48980662 -0.5579949 0.5235358 -1.8861321 0.29080164 0.8740166 -0.6303716
1.402877 0.6819611 -0.37281668 0.15042394 -0.3567253 0.014962059 -0.28573546 -0.08165017
0.20173773 0.080782175 -0.009891797 -0.019733073 0.038479153 0.20712323 0.023442073 0.04315477
-0.06434288 -0.29922768 0.085766405 0.0011562939 0.008946302 0.099243574 -0.14611217 -0.04287899
-0.026949637 0.042325802 0.10105747 0.08560516 0.4814861 0.0044361055 0.03240031 -0.3541455
-0.103942916 -0.036238983 -0.04336546 0.18511514 0.024866993 0.095131375 -0.09921874 -0.044724118
0.18336384 -0.12107689 -0.014439142 -0.036548503 0.024182744 0.20697972 0.0010576393 0.12386929
-0.08243882 -0.2813603 0.0032004064 -0.013215099 -0.7382054 -1.3707088 -0.20203641 0.040724803

net.0.bias f4 [256]
00000000: fdd2 d13d 506f d3bb 4c5a 453c cfb9 42bd
00000010: 222d fb3d 007d 76bd cd13 22bd ede7 b6bd
00000020: 2504 65bd 639f b53c 4b41 913d 2a67 c2bc
00000030: a661 dd3c 500d 313c cad3 a03b aa46 b73c
00000040: b485 c3bc 81f2 573d d414 463d f92c 833c
00000050: 7f2d dbbd ed05 bcbd aabc adba c5c1 0dbd
00000060: 0057 ad3c 9af3 4a3b 7520 fd3b fb0f ad3d
00000070: 360d e23b ca4f b23c 5d01 963d 3368 823c
00000080: 3d48 783d 9ec3 b43d f301 a53d 3cdc a13d
00000090: fd52 b33c e307 8e3d 2a19 c13d d9c5 d7bd
000000a0: b15f d83d f258 043d e05e 5abd 85be 6f3c
000000b0: 15a6 503d e23c 163d 857e 33ba f05b d3bd
000000c0: 2bf7 f23c b674 eabd 583d 7d3d c169 603d
000000d0: 94b6 b2bd 49b2 a7bd 3dee 8c3c dab3 083c
000000e0: 6fd7 993d a186 8c3c 3e6a bfbc 78dc 11bd
000000f0: 5b60 7fbc 65ea 663d 26e4 263d 58cd 5339
00000100: eb66 4cbd ca36 c33d ac34 b33d a01f dd3c
00000110: 3eb7 ecbd be42 a33c af18 b9bc 4c6b 17be
00000120: f3ca da3d 4a43 88bd e82b 033d 0d6a 013d
00000130: c036 9cbd cce2 08be b833 06bc cb6d 80bc
00000140: 16e3 bc3d bef0 15bd 2672 113d 985e 25bd
00000150: 31d7 b0bc fc65 23bd ae60 5c3d 0bca 27bd
00000160: a366 f9bb 33e9 43bd 4f20 04be 64ec 84bc
00000170: 1adf 263d d98e 56bd 3c7d 513c 71af 5abc
00000180: 6d6b cf3b ba62 84bd e6d1 2e3c 5a73 97bd
00000190: 59f6 a1bd 2ca9 9a3d 13df 6b3c f657 b33d
000001a0: ad20 19bc 6d91 943d a725 1c3d 48e8 6fbb
000001b0: 75b9 17bd c4da 12bc 0c40 f43d 5863 f73c
000001c0: 39ea 52bc 2fac 9a39 98f7 773d ebc9 bbbc
000001d0: fbf0 c73d e213 a53d 89f7 2fbc 5aa0 a7bd
000001e0: be42 3abc 363f 59bd 7b0d 5cbc 9112 e1bc
000001f0: cae7 f23d 0b6c 953d d0a7 133c a5e5 cb3d
00000200: 1f7c 8abd 702d 243d c7ef 303c 59dc d43d
00000210: ff3e 693c 184f 953b 3170 0fbd c0cf b7bc
00000220: 66f5 4d3d 0844 883d 5f80 5dbd ad0a b1bd
00000230: 384f 6cbd 50ca d93d 0457 433d 0f5c 16bd
00000240: d016 a63b 3bc4 1d3d 38c1 5ebd fa5d f43d
00000250: 9369 0fbd 932b b8bd bb5d 3c3d 8f4d 643d
00000260: 93fa 96bd e313 b13d 133d 5e3d 7a72 903c
00000270: 402f 003c 6050 9bbd 6149 343d e4e7 9bbd
00000280: 5d1f cf3c 6566 18bc 1b83 d63d ed19 323d
00000290: 3089 913d 28df c13d e9ef 9e3d 00bb 85bd
000002a0: b0f0 4c3b e9f0 83bd fe11 803d 368b 74bd
000002b0: 6703 93bc 49b9 07bd 9580 8e3d 4cdb 29bd
000002c0: c741 9c3d a5e9 623d a02d 473d eb40 a93d
000002d0: effd 61bd afef 9a3d 0ed9 e8bd 3134 a2bd
000002e0: c3a5 edbc 4b19 023c 8aa3 af3d 2657 f53d
000002f0: 9259 863d 6b32 b1bd 1aab 903d e6fd 913d
00000300: aaea dcbd 9b0d fcba 8d93 a0bd 8b2a 10bc
00000310: a6f2 86bd fe1d 283d ae05 903d a8ff c23c
00000320: 1c52 9bbb 7c56 903d 2317 2f3d ea99 e03d
00000330: 35a4 133d 148c 0c3d e1cb 0fbd 99f7 2e3d
00000340: 7e08 653d d7ee fcbd 1959 6cbd d74b 56bd
00000350: 5017 8bbc 61ff 76bd d2f1 c53c 8c83 1c3d
00000360: e87e 6abd 45b3 f63d 89a3 e33d 02f8 903d
00000370: 07d7 fb3d 3e17 ba3d cf8a 4abd d8a8 6bbd
00000380: 7bfd d33d 81fd 8abd 7d47 143a 42d3 88bd
00000390: 76f2 f93d 1103 b33b a0a1 45bc ab16 f13b
000003a0: c6ab ee3c f89e 4e3d 8414 c8bd a2ad f13d
000003b0: 7647 4f3c a675 b13d ed93 8a3d 3a21 913d
000003c0: ff7a 23bd f19b 213d 7036 783a bedb 753c
000003d0: 75d3 b9bd 658e 6dbd 2891 b93b 4ee0 203d
000003e0: cd3c ab3c f882 533d d708 debd 587f 89bd
000003f0: 43ce 55bd d975 123c 01e5 f13c 7b16 e2bc
0.10245321 -0.0064524785 0.012045454 -0.047540482 0.12264468 -0.060177803 -0.039569665 -0.08930955
-0.055912156 0.022170728 0.07092532 -0.023730833 0.027024101 0.010806397 0.0049080597 0.022372562
-0.023867466 0.052721504 0.048359707 0.016012656 -0.10702037 -0.09180818 -0.0013255079 -0.03460862
0.021159649 0.0030967952 0.0077248164 0.08450314 0.0068985475 0.021766562 0.07324479 0.015918827
0.060615767 0.088263735 0.080570124 0.079033345 0.021890158 0.06935098 0.09428628 -0.10535783
0.10565127 0.032311387 -0.053313136 0.014632826 0.05093964 0.036679156 -0.0006847161 -0.1032027
0.029658874 -0.11448042 0.06182608 0.054788355 -0.0872623 -0.08188302 0.017203445 0.008343661
0.07511794 0.01715404 -0.02336609 -0.035610646 -0.015586938 0.05637588 0.040744923 0.00020199025
-0.049902838 0.095319346 0.08750281 0.026992619 -0.11558388 0.019929286 -0.022594778 -0.14787024
0.10683241 -0.06653459 0.032024294 0.03159528 -0.0762763 -0.13367766 -0.008191042 -0.015677353
0.09223001 -0.036606543 0.03550925 -0.040373415 -0.021586986 -0.03989218 0.05380314 -0.040964168
-0.007611112 -0.047829818 -0.1290295 -0.016226001 0.04074011 -0.052382324 0.012786206 -0.013347493
0.006329945 -0.06464143 0.010670161 -0.073950484 -0.07908315 0.07551798 0.014396447 0.087570116
-0.009346169 0.072543 0.038121846 -0.0036606956 -0.0370421 -0.008963291 0.119262785 0.030198738
-0.012873226 0.00029501456 0.06053886 -0.02292343 0.0976276 0.08060433 -0.010740169 -0.081848815
-0.011368452 -0.0530388 -0.013430948 -0.027474673 0.118606165 0.07295998 0.009012178 0.099559106
-0.067619555 0.040082395 0.010799355 0.103935905 0.014236211 0.004556548 -0.035019103 -0.02243793
0.05028286 0.06653601 -0.054077502 -0.08644614 -0.057692736 0.10634291 0.047690406 -0.036708888
0.0050686374 0.038517218 -0.054383487 0.11931987 -0.035012793 -0.08992686 0.045987826 0.05573803
-0.07372012 0.08646371 0.054257464 0.017632712 0.007823765 -0.0758369 0.044015292 -0.07612589
0.02528351 -0.0093017565 0.10474225 0.043481756 0.071062446 0.09466392 0.07760603 -0.06529808
0.003127139 -0.06442434 0.06253432 -0.059703074 -0.017945958 -0.033135686 0.06958119 -0.041468903
0.076297335 0.055398602 0.048627496 0.08264335 -0.05517381 0.07565247 -0.11369525 -0.07920111
-0.029009705 0.007940601 0.085761145 0.11979513 0.06560053 -0.086521946 0.07063885 0.071285054
-0.10786946 -0.0019230129 -0.07840643 -0.0087992055 -0.0658925 0.041044228 0.07032333 0.023803547
-0.004740013 0.070477456 0.042746674 0.10966857 0.036045272 0.034313276 -0.035106543 0.042716596
0.055916302 -0.123502426 -0.057702158 -0.05231842 -0.01697889 -0.060302142 0.02416316 0.03821139
-0.057249933 0.12045912 0.11115176 0.07078554 0.122968726 0.09086464 -0.049448784 -0.05753407
0.10351082 -0.06786633 0.00056564045 -0.06680919 0.12204449 0.005463012 -0.01206246 0.0073574386
0.029134642 0.050444573 -0.09769538 0.11800696 0.012651315 0.08665018 0.06766496 0.070864156
-0.03991222 0.039455358 0.0009468561 0.015006004 -0.09073535 -0.057997126 0.005663056 0.039276414
0.020903016 0.051638573 -0.1084153 -0.06713742 -0.05219866 0.00893923 0.029528143 -0.02759861

net.2.weight f4 [128, 256]
00000000: 57b0 c3bc 49ad d6bc 5380 a8bc b629 cabc
00000010: d31d b73c 9ac6 92bd 64e3 14bd 49ce a23b
00000020: 07de 9bbb 6bcc ae3c 6608 13bb 843b d8bc
00000030: 20c7 83bd a6f5 64bd 06cd 3ebd 4098 12bc
00000040: e588 623c 7da2 99bd 2e99 78bd 5782 223d
00000050: 3979 d8bb 6f83 713d 2308 88bd e7dd 19bd
00000060: a15c 0d3d 0fab 2b3d 41ce 6a3c 011b bc3c
00000070: 66ea 8cbd 2169 84bd 75ae 753c 800d c83c
00000080: 52bb d43b c7ff 173d a6e6 16bb 38ad a83c
00000090: de6d ab3c f5f0 683c 4809 183d 1246 e3bc
000000a0: a84d 87bd f23d efbb ec8f 293d 188f 0bbc
000000b0: 4ef4 99bd 870c 0fbc 215c f63c 34f0 0f3d
000000c0: a33e 8fbd 4a41 2ebd a076 7dbc 7fa1 ebbc
000000d0: 480c 803c c7ab e6bc 2e71 83bb fef9 62bd
000000e0: 6b6a 0e3d 738e 9d3c c53b 8f3b b1e5 cfbb
000000f0: 2c58 b23c 74db 91bb 24df 9bbd f17b 56bd
00000100: be5e 9b3c 9fca b0bc 3d1c 203c d466 80bd
00000110: 4f45 933c aba8 37bc cbb7 5fbc 69b6 8fbd
00000120: 1c00 9fbc 226e 583c 5ac6 023d eee9 00bd
00000130: 615a f63c 502a c13b 901a 59bc 4384 023d
00000140: 1771 2a3d 1c59 bebc f659 283d 7a90 5c3c
00000150: 0e2d 8fbd 7a33 80bc 11b2 20bd cc50 28bd
00000160: f9fe 86bd 1100 91bc 89be 6fbd 2035 e23c
00000170: 0893 1d3c 367f 92bd 26a7 1f3d d4bb 2b3d
00000180: 7ca5 87bc 865b 343d 4f72 f93c ede6 013d
00000190: 1ead 95bd ddf1 b9bb 6fb1 0fbd 3f73 20bd
000001a0: 0446 86bd cb32 48bd c67e 263c 55a3 bebc
000001b0: 6eb2 25bd b0ef 5a3c a6e0 6e3b 7457 933c
000001c0: a081 f23b 999e 80bd 2495 25bd 733b edbc
000001d0: ab01 8abd 5980 aebc ef4b 6dbd b2f9 0abd
000001e0: 7dc0 103d cb2c 3e3b faf1 f33c 1a14 c43c
000001f0: a2db 0bbd e91c abbb c87c 55bd e939 c13c
00000200: e192 e53a 63fc 623b 5bc0 f73b 7208 38bd
00000210: 0439 da3c dbfc 923c 5040 1abd bfc5 073d
00000220: 6f66 233d 2f40 e0bc f544 10bd 28b9 84bd
00000230: 05b9 0d3d 1843 cb3c 9ee3 1dbd bbf2 3bbc
00000240: 1c74 263d 7a67 14bd 48d6 a5bb d7e0 0b3d
00000250: 207a ac3c 2aa7 91bd 76ce d63c 341d 5dbd
00000260: 4d54 a9bd 645e 27bd b436 683c 87c2 fbbc
00000270: 23c6 1c3c 2507 6dbd 50d8 393c 3121 30bd
00000280: a86c 95bd 187c a83c 78ad 9ebc 0c84 9ebc
00000290: 1e2d 74bd fb77 88bd affb 173d 8d9c 1e3d
000002a0: 36e2 21bd 764f bb3c 0509 32bb da91 11bb
000002b0: 016e 38bd 489f 73bd 12ee 8b3c 7f8e 30bc
000002c0: d2cd 1bbd 351f 8ebc 1bae 8cbd f64f 693c
000002d0: cade 0a3d ee23 d1bc c600 80bd 551a e43c
000002e0: 61a1 98bc 69c2 b53c a7d5 663c b416 17bd
000002f0: 028d 153d 770a 98bd 6239 383d 36e6 133d
00000300: 8635 2fbd 670b cdbb a8b0 bebc 98ac c2bc
00000310: 1683 96bd fd15 92ba 6b9e 2b3a 8aeb cabc
00000320: d815 c73c b86f 81bd af16 80bd 02ad a33c
00000330: ae78 b53b 58f2 14bc 8a67 7dbc c994 88bd
00000340: 49d4 19bd d4ad dc3b aab7 15bd 512e 68bd
00000350: c01e afbc a618 3e3d 0140 5f3c 4e06 093d
00000360: db88 7eba a19f 99bd 6459 a7bc 495a 083d
00000370: 5487 ad3c 1c63 e1bc 78a1 ae3c ed5a 37bd
00000380: 6167 143d a4a6 54bd 09d2 4ebc ce89 583d
00000390: 3516 b5bc 3001 2cbd 6bd9 463c 2129 c3bc
000003a0: 5ebe 53bc 9e0a de3c e75c 31bd 3418 44bd
000003b0: aac9 7c3c 289d 27bd 62a6 e3bc e112 023d
000003c0: 7cfe 20bd 88bd 8e3b ac09 64bc ba35 50bd
000003d0: c64b 5c3d b4b1 20bd 289f 2cbd 2612 96bd
000003e0: e391 4e3c 063c 93bd fc31 cd3c 5216 073d
000003f0: 99b9 43bd 2425 2c3d 2d53 9fbb 25d6 c63c
-0.023887796 -0.026205676 -0.020569002 -0.024678092 0.022353088 -0.071667865 -0.03634967 0.0049684388
-0.0047566923 0.021337708 -0.0022435426 -0.026395567 -0.064344645 -0.05589833 -0.046582244 -0.008947432
0.0138265835 -0.07501695 -0.06069296 0.039675083 -0.0066062477 0.058963235 -0.06642177 -0.03756514
0.034512166 0.04191118 0.014331401 0.022962095 -0.068806455 -0.06465364 0.014995207 0.0244205
0.006492057 0.037109163 -0.002302566 0.02059041 0.020926412 0.014217605 0.037118226 -0.027743373
-0.06606609 -0.0073010856 0.04139702 -0.008518003 -0.075173005 -0.008731014 0.030073227 0.035141185
-0.06994369 -0.042542733 -0.015470177 -0.02876353 0.015630856 -0.028158082 -0.004011295 -0.055414192
0.034769457 0.019232964 0.0043711388 -0.00634452 0.02177056 -0.0044512097 -0.0761092 -0.052364293
0.018966075 -0.021580992 0.0097723575 -0.06269613 0.017977385 -0.011209647 -0.0136546595 -0.07017214
-0.019409232 0.013209851 0.031927444 -0.031473093 0.030072393 0.0058949366 -0.013250962 0.031864416
0.041611757 -0.02323585 0.04110142 0.01346218 -0.069910154 -0.015649546 -0.039232317 -0.04109268
-0.06591601 -0.017700227 -0.058531318 0.027613223 0.0096175745 -0.0715317 0.038977765 0.041927174
-0.016558401 0.044032596 0.030450014 0.03171437 -0.0730841 -0.0056745843 -0.035081323 -0.039172407
-0.06556323 -0.048876565 0.010162061 -0.023271242 -0.040453367 0.01336281 0.003644982 0.017986037
0.0074007064 -0.0628025 -0.040425435 -0.028959012 -0.067385994 -0.021301435 -0.057933744 -0.033929534
0.03533982 0.0029018398 0.02977847 0.023935366 -0.034145005 -0.005221952 -0.052120954 0.023587184
0.0017515087 0.0034635297 0.0075607724 -0.04492993 0.026638515 0.017942837 -0.03765899 0.03314757
0.03989261 -0.027374355 -0.035222013 -0.06480628 0.034600276 0.024812266 -0.03854715 -0.011471446
0.040638074 -0.036231495 -0.0050609447 0.03414997 0.021054327 -0.07111962 0.026221495 -0.05398293
-0.08268032 -0.040861502 0.0141731985 -0.030732406 0.009568724 -0.05786814 0.011343077 -0.043000404
-0.07296115 0.020566985 -0.019369826 -0.019350074 -0.05961334 -0.066635095 0.03710526 0.038723517
-0.039522372 0.022865038 -0.002716602 -0.0022212178 -0.045026783 -0.059478074 0.017081294 -0.010776161
-0.038038082 -0.017348865 -0.068691455 0.014240256 0.033903874 -0.025529828 -0.062501475 0.027844587
-0.018631639 0.022187429 0.014089025 -0.036886886 0.03651143 -0.07423871 0.0449766 0.036108218
-0.042775653 -0.006257463 -0.023277596 -0.02376394 -0.073492214 -0.0011145469 0.00065467384 -0.024770517
0.024302408 -0.06320137 -0.062543266 0.019979957 0.005538068 -0.009090982 -0.01546658 -0.066690035
-0.037555967 0.006734589 -0.03655211 -0.056684796 -0.021376967 0.046410225 0.0136261 0.03345328
-0.0009709724 -0.0750115 -0.020428367 0.033289228 0.021182694 -0.02751308 0.021317229 -0.044764448
0.036231402 -0.051916733 -0.0126233185 0.052865796 -0.022105316 -0.04199332 0.012136797 -0.023823323
-0.012923805 0.027104672 -0.04330149 -0.047874644 0.01542894 -0.04092136 -0.027789298 0.031756286
-0.039305195 0.00435609 -0.013918322 -0.050832488 0.0537832 -0.03923197 -0.04214397 -0.0732768
0.012608024 -0.07189183 0.025048248 0.03298027 -0.04778442 0.042027608 -0.0048622102 0.024272034

net.2.bias f4 [128]
00000000: 81b9 fcb9 f83e dd3a b4aa 023d f3ca c6bc
00000010: 4f26 8dbd 7337 4bbb cea8 40bc fc72 82bb
00000020: 9366 debc 053c 0ebc bf13 36bd 0732 d3bc
00000030: ec97 4fbb 55f2 803d 7575 9a3b 64d8 4f3d
00000040: 24ee 5cbd fff6 a33c 16d4 193c 02e7 be3c
00000050: 4a96 533d d48a 14bd ab87 573d 8d78 583b
00000060: d8ed bb3c 80a9 ba3d d7cf b63d 574c fbbc
00000070: 4467 aebd 23d4 5b3d 0c20 e63b 7b0d 1a3d
00000080: 0f01 133e 8f44 92bd 1e9a 32bd a369 853c
00000090: db0a a4bd 5b66 ea3c 1b98 69bd fb1e 003d
000000a0: cdd1 26bd 1e95 78bd 51ea b63d dc3c bbbd
000000b0: 6500 9fbc 5ab6 9ab9 4620 dfba a0fb 5bbc
000000c0: b36e 143e 34d9 81bc b1db 153d 759c c6bc
000000d0: 9b02 123d c6e2 eb3d 8fd8 7c3d 5d2a 563d
000000e0: e55a d03d f483 d43c cca6 84bd 6709 f43c
000000f0: 109c 9d3c 5223 a33d e77a a93b e0a3 90bd
00000100: 5e03 aabd 0ba3 a8bc 8625 243d cf23 e03c
00000110: 212a 053d 97b7 7dbd 472f 723d 7ade 0e3e
00000120: 67c6 1abd 388a bf3c a5ff eebb b205 b53c
00000130: b958 093b 1b60 c2bd 6536 27bc f135 493c
00000140: 4f0a 7ebd 19a5 463c 262e 623d 9ff9 87bd
00000150: 71b9 c03b 8696 3abd f2f2 33bd da16 723c
00000160: 2c0b d4bc d3f5 b53d 8012 b13c c56a 353d
00000170: e9bb e63d 1ce2 ae3c 9c4d 463d 523c 473d
00000180: cee8 5f3d 702f 4b3b cbe2 283d 8c1d 973b
00000190: b4c5 cd3d 2be8 0a3d 7864 8abd 54ac 53bd
000001a0: 640f 7ebd 217b 743b d134 23bc 69e9 033e
000001b0: 73f1 e63d 4e37 5d3d b61e cfbc ee8d 273e
000001c0: 894d 9dba ba0c 46bd 593e 263d 289d 1a3d
000001d0: 321e 983c 6965 09bb 233c 7fbd 1f3b a23c
000001e0: 279d f63c 0200 873c 2618 94bd c58f 053e
000001f0: 1a40 473d 4e92 6bbb 3524 893d 5290 f53c
-0.00048203397 0.0016879728 0.031901076 -0.024266696 -0.068920724 -0.0031008392 -0.011758996 -0.0039809924
-0.02714852 -0.008681302 -0.044452425 -0.02578069 -0.0031676246 0.06296221 0.004713709 0.050743476
-0.053938046 0.020015238 0.009388944 0.023303512 0.051657 -0.03626521 0.052619617 0.0033030838
0.022940561 0.09114361 0.08926361 -0.03067605 -0.0851579 0.053669106 0.0070228633 0.037610512
0.14355873 -0.07141983 -0.04360401 0.016285723 -0.08009883 0.02861326 -0.057029825 0.031279545
-0.040727425 -0.060689084 0.08931411 -0.091424674 -0.019409368 -0.0002950903 -0.0017023168 -0.013426691
0.14495353 -0.01585064 0.036586467 -0.024244526 0.035647016 0.11517863 0.061729964 0.052286495
0.10173587 0.025941826 -0.064771265 0.02978964 0.019239455 0.07965721 0.005172122 -0.07062507
-0.083014235 -0.020585557 0.040074848 0.027360825 0.03251088 -0.061942663 0.05912712 0.13952056
-0.037786867 0.023381338 -0.007293659 0.022097442 0.0020957424 -0.09490987 -0.01020584 0.012280927
-0.06202155 0.012124323 0.05521979 -0.06639408 0.0058814813 -0.045553707 -0.043932863 0.014775956
-0.025884233 0.08884778 0.021615267 0.044291276 0.1126631 0.021348052 0.048413858 0.04864151
0.05466538 0.0031003617 0.04123191 0.0046116766 0.100474745 0.03391282 -0.06757444 -0.051678017
-0.062026396 0.0037304836 -0.009961323 0.12882008 0.112765215 0.05400782 -0.025283199 0.16362736
-0.0012001257 -0.04835198 0.040586803 0.037747532 0.018569086 -0.0020964986 -0.06231321 0.019803582
0.030104233 0.016479496 -0.072311684 0.13043125 0.048645116 -0.0035945359 0.06696359 0.029976044

net.4.weight f4 [32, 128]
00000000: f4e7 78bd 6c48 75bc 9a9f 27bd 0d21 973d
00000010: 3a9f 30bc c9c3 9b3b 9f0e d2bc 8a94 493d
00000020: ef2e 83bd 5e04 153e 3fdb 6dbd c043 043e
00000030: c684 6c3e 01a6 e8bc f0e6 233d 1eff 6dbb
00000040: b416 22bd 5f0f 92bc 5a2b d33d 7412 a53c
00000050: 4c6f bc3d b587 ed3d 9c43 c23c 0daa 053e
00000060: fb62 c6bc ffdf 803e 25a4 17bd d128 193d
00000070: 744d 7bbd fce9 9a3d 83fd fc3d f872 1f3e
00000080: 98fa 333d fcfc 1abc a83e 9ebc 4955 1cbd
00000090: b3ba dfbd b6a5 d03d 1053 8bbc 3c49 3ebd
000000a0: e85b 21bd a812 cfbc c8ca 933d 0bc3 763e
000000b0: 32fd fb3d 33b8 46bd 081a fe3d ca8c 613e
000000c0: 5d60 bbbc 0a30 eabc c514 f73d 1d22 663e
000000d0: da4d 363d e81d 9f3d d4c3 b83d 5409 e23c
000000e0: 802e 3c3e 8ec5 a73d 0eff 163e bc33 94bd
000000f0: d2f0 33bd 153c ab3d e43e 85bd 93e8 23bc
00000100: b7f3 07bd fd15 97bd 4c61 7c3d 092e 6ebd
00000110: 4cc9 403e 78ca 51bd 89e2 813e e7ee 3dbc
00000120: 2ecf 143e ce44 d6bc 0552 3839 ace3 d7bc
00000130: c62e 693e 88f6 dcbc 095d 893e f554 60bc
00000140: 2d87 01bd 6ad5 afbc 9107 c63d efb8 80bd
00000150: eb1a 8fbd 9195 2abd 0623 a83e bac1 d73d
00000160: c291 b2bc 9c38 a63b 97db d23d e418 2dbd
00000170: 1f13 393c 6a31 8b3d 921c 34bd 5496 413e
00000180: 7660 513d 6a0b 043d 6bdb 0bbd e3f4 07bd
00000190: 3d5f 943d f2aa d6bc e35e 12bd 97e1 983d
000001a0: 746b 023e 8c4f 2c3e a8cc 9a3d ab35 fdbc
000001b0: ff33 68bd d454 713d d307 ebbb ecef 95bd
000001c0: 48b8 8f3c 3f15 1abd a3a6 4abc 3d3a 56bd
000001d0: ca16 c73d 8b28 91bd 6972 1abc 2380 3b3e
000001e0: 5612 42bd 7f49 85bb c630 60bb 0c95 7f3d
000001f0: fedc 493e b1c0 613e 1784 2e3e c0bc 06bd
00000200: 4d8d cf3c dae2 7c3c 1981 84bc 9058 313e
00000210: 0c6c 41be 6a68 0e3c 9424 3bbd 2954 443d
00000220: 7e20 073d 1f50 9b3c c99d 74bd 37c8 94be
00000230: a9e7 c13d cf26 73be f4ff 77be 4daa ca3d
00000240: 6fb1 453d 55c6 24bd 9a2f f7bd cfdd 73bd
00000250: b2ae 32bd a789 4b3e d49e 5c3e 62e8 8c3e
00000260: 9108 ddbc b4e9 f2be f34c 883c 3fee ae3d
00000270: 6970 c9bd 6031 34be 1d74 63bc fdcb 16c0
00000280: fb4f 3abf c85a 813d 5c16 c7bd dcc3 4abd
00000290: 3b8c 96be 0166 9ebe b091 b6bd badf 783d
000002a0: eb4f 8dbd 8ca9 c63c a588 f5be 48e9 483e
000002b0: 57b8 f4bd b28c 273d c216 d4bc 727d 93be
000002c0: 1340 b0bc 37db 9cbc 1d32 c53d 9d20 a53d
000002d0: df7d 4f3d 69d1 1abf a4c4 823e 77ff 6ebe
000002e0: cbcc 02bf 46df 5d3e aeb0 aabb d017 3dbd
000002f0: 658b a7bc c0de 4cbf ecbb e93b 3b35 283c
00000300: 5f87 1e3d be9a a3bd a3e9 833e 3da3 c93c
00000310: ecb3 22bd 73ab 23bd dfe6 953e 6cd9 b9be
00000320: fac9 9b3e 6296 57bd 2769 5bbd c3f2 813b
00000330: 1e53 663e 8db2 e6bb 70a6 a53d dd61 d9bc
00000340: 028a 47bd ca51 49bd 2b48 99be 8119 753c
00000350: 43d1 52bc 65fc a0bc 4b40 d33d 3cb4 88be
00000360: d8e6 1e3d f488 a8bd 7af7 123c 5ad5 20bc
00000370: 1592 5dbe d723 5f3d e929 713d 8ead 463e
00000380: 82b0 1c3d 3de4 84bd 1fd9 56bd 9af7 e83b
00000390: 1bbb 42be 9ee2 6ebc 9c3c 7d3d 5f18 74bc
000003a0: 81d9 78bd 1f2f 923e c97e a73e 1bd2 383c
000003b0: 5116 103e b00d 76be 272c e8bc 7ce0 b1be
000003c0: 9f49 8dbb 2a44 a03c 7f66 5ebd 8602 c6bd
000003d0: a2c2 57bd 5786 05b9 e9e8 a33d 75e6 4a3d
000003e0: 0d70 a1bd f2b0 41be 21bf 29bd 25d3 4dbe
000003f0: 9f64 523e 2cc4 2e3e 61fb fcbc a4bf 46bd
-0.060768083 -0.01497088 -0.040923692 0.07379351 -0.01078015 0.004753564 -0.025641738 0.049213924
-0.06405436 0.14552447 -0.058070417 0.1291647 0.23097524 -0.02839947 0.04001516 -0.0036315392
-0.039572433 -0.017829595 0.10311003 0.0201504 0.09200916 0.1159815 0.02371388 0.1305315
-0.02421712 0.25170895 -0.037021775 0.03739244 -0.061353162 0.0756416 0.12353041 0.15571201
0.043940157 -0.00945973 -0.019316986 -0.03816727 -0.10924282 0.10187857 -0.01700738 -0.04645656
-0.03939429 -0.02527745 0.07216412 0.2409784 0.123041525 -0.04851551 0.12407309 0.22026363
-0.022873098 -0.02858736 0.12064508 0.2247395 0.04450784 0.07769376 0.09021726 0.027592339
0.18377113 0.081919774 0.14745733 -0.0723643 -0.043930836 0.08361069 -0.06506136 -0.0100041805
-0.03319141 -0.07377241 0.061616227 -0.05814937 0.18826789 -0.05121848 0.25368145 -0.011592603
0.14532158 -0.026155856 0.00017578162 -0.02635368 0.22771749 -0.026973024 0.26828793 -0.01369213
-0.031623054 -0.021464068 0.09669412 -0.06285273 -0.06987556 -0.041646544 0.3283922 0.10534997
-0.021798018 0.0050726663 0.1029579 -0.042260066 0.011296063 0.06796534 -0.04397256 0.18905002
0.051117383 0.032237448 -0.0341448 -0.033192527 0.07244728 -0.02620456 -0.035735022 0.07464903
0.12736303 0.1682722 0.07558566 -0.03090938 -0.056690212 0.05891879 -0.0071725636 -0.07321152
0.017543927 -0.037617918 -0.012368831 -0.052301634 0.097211435 -0.07087811 -0.009426692 0.18310599
-0.047380768 -0.0040675993 -0.0034208759 0.062398 0.19713208 0.22046162 0.17042576 -0.03289485
0.025335932 0.015434945 -0.01617484 0.1731894 -0.18888873 0.008691886 -0.04568918 0.047931824
0.03298997 0.018959103 -0.05972079 -0.29059002 0.09468014 -0.23745273 -0.24218732 0.098957635
0.048264917 -0.040228207 -0.12069626 -0.059537705 -0.043623634 0.19876729 0.21544963 0.27521044
-0.026981624 -0.47443926 0.016638255 0.085415356 -0.09835894 -0.1759696 -0.013882664 -2.3562005
-0.7277829 0.06316143 -0.097210616 -0.049503192 -0.29403862 -0.30937198 -0.089145064 0.060760237
-0.06900009 0.024250768 -0.47955814 0.1962024 -0.119492225 0.040905662 -0.025889758 -0.28806645
-0.021514928 -0.019147499 0.09628699 0.08062861 0.05065715 -0.60475785 0.2554065 -0.2333964
-0.5109374 0.21667203 -0.00520905 -0.046165287 -0.02045221 -0.8002739 0.0071329977 0.010266597
0.03870332 -0.07988499 0.25764188 0.02461397 -0.039722368 -0.03995843 0.29277703 -0.36298692
0.30427533 -0.05263365 -0.053567078 0.003965707 0.22492644 -0.007040328 0.08088386 -0.026535923
-0.0487156 -0.049150266 -0.29937872 0.014959694 -0.012867275 -0.019651601 0.10314997 -0.26700008
0.03879437 -0.08229247 0.008970136 -0.009816492 -0.21637757 0.05447754 0.05887786 0.19402143
0.03825427 -0.064888455 -0.052453157 0.0071095945 -0.19016688 -0.014580397 0.06182538 -0.014898389
-0.060754303 0.28551576 0.32713917 0.011280562 0.14071013 -0.24028659 -0.028341366 -0.3474158
-0.004311755 0.019563753 -0.054296967 -0.0966845 -0.05267585 -0.00012733914 0.080034085 0.049536187
-0.078827 -0.18915156 -0.04144204 -0.20100076 0.20546196 0.17067021 -0.030881586 -0.048522606

net.4.bias f4 [32]
00000000: d6ef a1bd 45f7 01be 75cc 17be 3002 33bd
00000010: 7cd9 0fbe dc04 3bbd 4a92 053d 9546 a2bc
00000020: b767 02be f21f 83bd e63f 923d 91fe b5bd
00000030: 2551 ad3c 11db 5fbd 794b f93b ec3c 263e
00000040: 21b3 1e3d 2629 a1bc d317 d4bd b80b 44bb
00000050: 2fee f33c 1847 d33c 2857 583d 1bfb d3bd
00000060: 42df 9d3d ad9d e3bc ecfe 163e 3615 bd3d
00000070: 976d 4b3d ace4 23bd 84ef 793d 1854 a23d
-0.07907073 -0.12691982 -0.14824088 -0.043703258 -0.14047807 -0.04565893 0.032610215 -0.019809047
-0.12734877 -0.064025775 0.07141094 -0.08886445 0.021156857 -0.054652277 0.007607874 0.16234177
0.03874505 -0.019672941 -0.103561066 -0.0029914211 0.02977666 0.025790736 0.052817494 -0.10350629
0.07708599 -0.027785147 0.14745682 0.09232561 0.04966506 -0.040013 0.061019436 0.07926196
